android/spamv3.tflite (tflite, 40876 bytes, 4 tensors)

sequential_10/dense_20/MatMul/ReadVariableOp/transpose f4 [6, 16]
0.93021756 1.9425672 2.5649655 0.9560852 0.80625075 -2.335298 -1.4855803 -1.4015576
-2.093524 -2.1159585 -1.63337 -1.3594044 -1.2802949 1.985172 -1.1844127 -1.3791512
0.031425677 -0.021003256 0.041364484 -0.014485028 0.2557576 0.3388143 0.23919375 -0.13505344
-0.29867214 -0.21470639 0.29100722 -0.2589585 0.21751614 0.08325749 0.27057502 0.35621703
1.3866179 2.8720374 2.0453908 1.4543217 1.2919425 -2.064821 -1.3044003 -1.7042876
-1.3076589 -2.2523446 -1.662728 -0.58395743 -1.2906129 1.5619669 -1.7752591 -1.1055926
1.4449357 2.2828987 2.3064725 0.85702175 1.6625284 -2.411736 -0.70140475 -1.3868414
-1.5920079 -1.9464375 -0.8796728 -1.3738838 -1.3498198 1.8256989 -1.6397719 -1.3947502
-0.3054573 0.39624625 0.4228247 -0.3266969 0.0021618612 -0.5037584 0.32767332 0.39189643
-0.43658674 0.32300958 -0.36337703 -0.2508273 -0.166381 0.15824321 0.4543055 0.2901898
-0.42197278 -0.31659573 0.08550706 -0.43417504 0.3293978 -0.47897616 0.3625597 -0.06141445
-0.47898427 -0.2514262 0.1695543 -0.29444072 -0.1454224 0.2926985 -0.30697358 0.4347447
00000000: bd22 6e3f 0ba6 f83f 6528 2440 00c2 743f
00000010: 7366 4e3f 8675 15c0 7f27 bebf 3d66 b3bf
00000020: 4cfc 05c0 dd6b 07c0 4512 d1bf f700 aebf
00000030: b4e0 a3bf 1e1a fe3f d69a 97bf 0788 b0bf
00000040: 36b8 003d 050f acbc ce6d 293d 9c52 6dbc
00000050: a9f2 823e 1179 ad3e 35ef 743e 734b 0abe
00000060: 8eeb 98be fedb 5bbe e6fe 943e 3596 84be
00000070: 8dbc 5e3e e782 aa3d cf88 8a3e 1462 b63e
00000080: b27c b13f 76cf 3740 afe7 0240 3727 ba3f
00000090: 5f5e a53f 0726 04c0 97f6 a6bf 1926 dabf
000000a0: 5e61 a7bf 6a26 10c0 45d4 d4bf 3c7e 15bf
000000b0: ce32 a5bf 88ee c73f b13b e3bf 0f84 8dbf
000000c0: a7f3 b83f 031b 1240 3f9d 1340 c765 5b3f
000000d0: bbcd d43f e259 1ac0 438f 33bf 0584 b1bf
000000e0: eac6 cbbf dd24 f9bf 3d32 61bf 6ddb afbf
000000f0: e5c6 acbf 80b0 e93f 0ce4 d1bf 2d87 b2bf
00000100: e664 9cbe cae0 ca3e 7b7c d83e d144 a7be
00000110: 03ae 0d3b 4ff6 00bf ccc4 a73e a6a6 c83e
00000120: 4c88 dfbe 8361 a53e 8e0c babe 706c 80be
00000130: c85f 2abe 820a 223e bb9a e83e c293 943e
00000140: d10c d8be d618 a2be 531e af3d 314c debe
00000150: d4a6 a83e 5d3c f5be 6da1 b93e b88d 7bbd
00000160: 6d3d f5be efba 80be a49f 2d3e efc0 96be
00000170: 9ce9 14be 94dc 953e a42b 9dbe db96 de3e

sequential_10/dense_20/MatMul_bias f4 [6]
0.035796735 -0.022124978 0.027165618 0.035831966 -0.01763348 -0.026995376
00000000: 999f 123d 713f b5bc 6e8a de3c 8ac4 123d
00000010: 1674 90bc 6825 ddbc

sequential_10/dense_21/MatMul/ReadVariableOp/transpose f4 [1, 6]
-2.4006584 0.6491057 -2.3942227 -2.486553 0.80687636 0.4551807
00000000: 63a4 19c0 cb2b 263f f23a 19c0 af23 1fc0
00000010: 738f 4e3f 720d e93e

sequential_10/embedding_9/embedding_lookup/345591 f4 [600, 16]
0.0870977 0.024313435 0.027097644 0.09765982 0.0857197 -0.032999102 -0.08432441 -0.06184987
0.06857405 -0.0422663 -0.0803398 -0.11964462 -0.1062567 0.049776617 0.073871866 -0.08168058
-0.18393932 -0.36890242 -0.33214462 -0.23469043 -0.23504443 0.23953804 0.20208697 0.27850133
0.4561396 0.20922731 0.24221851 0.22605114 0.14366847 -0.36301866 0.3246877 0.20203508
0.89009464 1.0692759 1.1266654 0.88045734 0.993847 -1.0690014 -0.91399086 -1.0963755
-1.0894352 -0.89163136 -0.92081374 -0.85685986 -0.7788412 1.1681536 -0.9933044 -0.82912946
-0.18402706 -0.2350419 -0.2731494 -0.15701221 -0.22476517 0.20448017 0.13681811 0.27346006
0.362857 0.14610772 0.0913909 0.07740958 0.105979346 -0.26437622 0.25893337 0.10795142
-0.5035415 -0.52798426 -0.5836307 -0.4961038 -0.4612632 0.45867303 0.53550047 0.5037443
0.57636213 0.43785557 0.40335473 0.43705022 0.3816086 -0.5490025 0.5843576 0.4362324
-0.38962212 -0.5652335 -0.52631986 -0.37284133 -0.457496 0.4422801 0.41668183 0.45949057
0.5646372 0.41560802 0.40358973 0.3516549 0.37400702 -0.5460656 0.47555515 0.34727788
0.4296134 0.39350426 0.41728863 0.41833928 0.3787969 -0.3910258 -0.43103638 -0.43762782
-0.3198103 -0.39096805 -0.41018337 -0.3983803 -0.40872586 0.43662584 -0.37747386 -0.43252864
0.28575516 0.22966604 0.19238986 0.29811886 0.2819659 -0.2300623 -0.20995082 -0.2337558
-0.1292925 -0.22610012 -0.27002227 -0.30634987 -0.19764178 0.260909 -0.22515708 -0.29758418
0.010850614 -0.021630198 -0.08537574 0.013403251 0.00091695244 -0.027114645 0.004270782 0.014156139
0.13515517 0.071839176 -0.0024103578 -0.008867534 0.0068992684 -0.033924587 0.07405302 -0.0018219441
0.49080294 0.5660061 0.56726885 0.49269825 0.5632049 -0.5176665 -0.5177487 -0.6049015
-0.48296997 -0.5071703 -0.5007308 -0.46107277 -0.4242178 0.55817026 -0.46169752 -0.5036253
0.04763047 -0.004790039 -0.10264123 0.03532622 -0.018260626 -0.03410279 -0.038449015 -0.02303502
0.12544128 -0.042914387 -0.057961952 -0.041659456 -0.059371926 -0.04032852 0.009354568 -0.008008872
0.5545278 0.7392458 0.660504 0.61746466 0.6809637 -0.67699087 -0.6382597 -0.6917679
-0.62568665 -0.6346367 -0.62620395 -0.53515536 -0.528319 0.7839749 -0.5650881 -0.59845793
1.2015563 1.4300305 1.446788 1.2821205 1.3019248 -1.3425789 -1.3472444 -1.5125706
-1.4067912 -1.2715685 -1.2874119 -1.1839485 -1.1470057 1.5251937 -1.3687586 -1.1737479
-0.69299585 -0.83324313 -0.80810505 -0.7107564 -0.6733627 0.7335421 0.7286602 0.7626186
0.96733624 0.6569244 0.63803834 0.66699857 0.5695971 -0.7804922 0.8877233 0.7029539
-0.6780144 -0.8015074 -0.8453891 -0.7388046 -0.72418493 0.77979106 0.7408474 0.8454313
0.9190802 0.634884 0.6885431 0.65650135 0.6287344 -0.8210756 0.88335615 0.71764576
0.7760276 0.9141647 0.9708172 0.81076086 0.8889147 -0.86674184 -0.829479 -0.96734715
-0.92411184 -0.81740564 -0.8645781 -0.7410296 -0.68213725 0.9410615 -0.8874956 -0.7998197
00000000: 4760 b23d f82c c73c e1fb dd3c df01 c83d
00000010: cf8d af3d 112a 07bd 47b2 acbd 4a56 7dbd
00000020: 8d70 8c3d 6e1f 2dbd 3189 a4bd 3d08 f5bd
00000030: 1d9d d9bd 91e2 4b3d 224a 973d 2648 a7bd
00000040: 975a 3cbe c7e0 bcbe dc0e aabe b052 70be
00000050: 7daf 70be 7649 753e e3ef 4e3e ba97 8e3e
00000060: 218b e93e af3f 563e 2108 783e f379 673e
00000070: d41d 133e 95dd b9be 773d a63e 49e2 4e3e
00000080: 3edd 633f 08de 883f 9236 903f a765 613f
00000090: c26c 7e3f 0ad5 88bf 4efb 69bf 0856 8cbf
000000a0: 9d72 8bbf f441 64bf 73ba 6bbf 2b5b 5bbf
000000b0: 2362 47bf 0f86 953f 3249 7ebf d441 54bf
000000c0: 9771 3cbe d3ae 70be 3dda 8bbe cfc7 20be
000000d0: d728 66be 4063 513e 0c1a 0c3e f502 8c3e
000000e0: 65c8 b93e 439d 153e 272b bb3d ea88 9e3d
000000f0: b30b d93d 525c 87be ea92 843e a215 dd3d
00000100: 19e8 00bf fa29 07bf d268 15bf 5101 febe
00000110: b12a ecbe 31d7 ea3e 8f16 093f 63f5 003f
00000120: 788c 133f 9b2e e03e 8384 ce3e 0cc5 df3e
00000130: 3462 c33e 6e8b 0cbf 7698 153f da59 df3e
00000140: 8d7c c7be 25b3 10bf e6bc 06bf 0fe5 bebe
00000150: ea3c eabe 8a72 e23e 5257 d53e 5942 eb3e
00000160: 108c 103f 93ca d43e 50a3 ce3e 1c0c b43e
00000170: d97d bf3e f5ca 0bbf f77b f33e 68ce b13e
00000180: 4af6 db3e 6479 c93e dba6 d53e 9130 d63e
00000190: abf1 c13e 8934 c8be cdb0 dcbe c110 e0be
000001a0: 2dbe a3be f72c c8be 8e03 d2be 81f8 cbbe
000001b0: 8444 d1be 6c8d df3e 4144 c1be 6574 ddbe
000001c0: 804e 923e 932d 6b3e d901 453e 09a3 983e
000001d0: d65d 903e 7495 6bbe 59fd 56be ae5d 6fbe
000001e0: 4165 04be ca86 67be 5c40 8abe e4d9 9cbe
000001f0: 9b62 4abe dd95 853e 948f 66be f45c 98be
00000200: c6c6 313c d031 b1bc 7ad9 aebd 4f99 5b3c
00000210: a35f 703a 881f debc ebf1 8b3b 27ef 673c
00000220: 1e66 0a3e 6b20 933d 18f7 1dbb 2249 11bc
00000230: 4213 e23b 82f4 0abd 1ca9 973d 4dce eeba
00000240: 864a fb3e c7e5 103f 8838 113f f242 fc3e
00000250: 322e 103f cb85 04bf 2e8b 04bf d3da 1abf
00000260: d747 f7be ead5 01bf e52f 00bf bb11 ecbe
00000270: 1333 d9be 3fe4 0e3f 9e63 ecbe 96ed 00bf
00000280: 2b18 433d c2f5 9cbb 9135 d2bd 3ab2 103d
00000290: 4f97 95bc 5eaf 0bbd b77c 1dbd f0b3 bcbc
000002a0: ae73 003e ffc6 2fbd 8369 6dbd 1ba3 2abd
000002b0: fa2f 73bd 852f 25bd e743 193c a537 03bc
000002c0: 89f5 0d3f 363f 3d3f ca16 293f 2a12 1e3f
000002d0: a353 2e3f 464f 2dbf fd64 23bf b317 31bf
000002e0: 002d 20bf 8d77 22bf e74e 20bf f1ff 08bf
000002f0: ea3f 07bf 94b2 483f 9da9 10bf 8a34 19bf
00000300: 99cc 993f 3d0b b73f 5930 b93f 861c a43f
00000310: 79a5 a63f a0d9 abbf 8172 acbf ea9b c1bf
00000320: bc11 b4bf c2c2 a2bf eac9 a4bf a08b 97bf
00000330: 15d1 92bf 8c39 c33f 7b33 afbf 5f3d 96bf
00000340: 2d68 31bf 6c4f 55bf f9df 4ebf 22f4 35bf
00000350: 7f61 2cbf 6ac9 3b3f 7a89 3a3f f93a 433f
00000360: 59a3 773f 332c 283f 7b56 233f 6bc0 2a3f
00000370: 1ed1 113f 56ce 47bf d641 633f c9f4 333f
00000380: 5a92 2dbf 972f 4dbf 6c6b 58bf 4c22 3dbf
00000390: 2f64 39bf 63a0 473f 2da8 3d3f 306e 583f
000003a0: d748 6b3f c287 223f 5c44 303f 7910 283f
000003b0: bdf4 203f 0332 52bf a123 623f a2b7 373f
000003c0: bfa9 463f b306 6a3f 7a87 783f 068e 4f3f
000003d0: ea8f 633f cbe2 5dbf bc58 54bf 10a4 77bf
000003e0: 9892 6cbf 7f41 51bf fe54 5dbf 1eb4 3dbf
000003f0: 8ca0 2ebf 68e9 703f e932 63bf fcc0 4cbf
